data.pth (torch, 15487 bytes, 6 tensors)

l1.weight f4 [8, 251]
00000000: 2bf9 2a3f 34de bf3d d388 f13d 802e 0740
00000010: b835 3640 cc28 c93f 5732 8e3e 233d 323f
00000020: 5eee 353f 7a46 9d3e a6c9 0b3f 3802 033f
00000030: 8d3c be3f 441e 4c3f 6be0 1040 a833 563f
00000040: 3f2d 803d 2ffb f73f e0f2 b13f ee5a bf3f
00000050: 7d5e ef3f 2601 2440 b8d7 6740 8ff0 8b3f
00000060: 4ae1 9a3e 3350 903e b62d 393f ddcc 9cbe
00000070: 408d 2ebd d243 9b3e 18c8 3e3f bb82 7040
00000080: b9b5 873f 26ce 863f a9cf c43f ce04 c23f
00000090: a6d9 0840 e90d 133f 7f88 8840 a0d7 383f
000000a0: cdbe 2f40 6065 d43f b380 823d 67df 023f
000000b0: 3c9f ae3f 2976 573f 61e2 aa3f a18b 853e
000000c0: 3675 1a3f ab4b 3a3f 8f19 443f 750e bf3f
000000d0: 77b8 993f 0a90 4c3e 2ab3 cf3e 79ea 0a3f
000000e0: 8046 893e 8327 0a3f dc23 b43f e6f5 f33e
000000f0: a5e5 1740 a744 a53f 871f a63f fda8 2b40
00000100: 2415 4f40 639f 91be b3ae ff3f be1e 6e3f
00000110: 7415 763f 4716 0640 8fd4 153f 2941 c03e
00000120: 086f 0abd 7ef6 5a40 a4a5 723f 9149 e43f
00000130: 75d6 bb3f ef15 b43f 5d25 2740 d0be 633f
00000140: 1f7b af3f ebde 25bf e708 103f bb9a f73f
00000150: b65f a33f 3f72 edbd d02f 49c0 5933 2640
00000160: 4c23 bf3d affb d13e 6b2a 9f3f 030e 6f40
00000170: 7b23 443e d014 0040 6da5 b33e 7cfe 003e
00000180: bcb1 7040 1a05 6b40 30c4 2240 55ea 65be
00000190: b0c7 b53f 1a95 5a3f c22b 4a3f cc0c cf3f
000001a0: 7d0a 8c3f 7067 4d40 203f c33f 4e44 5040
000001b0: 18be 12bf f3d3 0940 2ad3 5b3f 2adb 7040
000001c0: f021 513f b327 a83f 8466 0240 943a 5d3f
000001d0: eb73 603f 1b14 143f f284 423f 32de 16bf
000001e0: 8189 94bd 7fc5 2f3f fee2 f53e 81be 0940
000001f0: fcb4 7340 acd4 6c3f ffca 413f 160c 853f
00000200: 20a3 2340 d980 98bf b6ee 3b40 06fd 2a3f
00000210: 4941 1940 cff1 d5be b066 073f fc25 bf3d
00000220: 909f 583f 1f70 613f f8ee 8d3f 9f96 d83f
00000230: 72b8 0c40 4aec 813e 242f 083d bbb3 b43e
00000240: b923 813f 1343 ee3f baac e13e 6421 9d3f
00000250: 6791 a53f d581 2040 e0ef 333f 2734 0c3f
00000260: 65e0 9c3f f98b 4640 0f6c 023e 29db 2540
00000270: 2b30 0c40 0265 903f 0663 483f b56a a63f
00000280: 8cee cb3f 5644 4b40 6637 593f 8f8a 263f
00000290: 2a3d 5b3f d03f b2bf ea53 133e d9b6 723e
000002a0: ece5 813e e12a df3f 893f 3b3f 372a 9f3f
000002b0: fdb1 273f 6a2c 693f dcb3 0440 606e ce3f
000002c0: 2e91 45bf fa5f 52be 6f3d a23f 4bca 1bbf
000002d0: b79a 663e dc96 c03f fb8c 8f40 e6ed 4bbf
000002e0: b13d 8bbf 1e76 dc3f 1b07 1f40 e2ef de3e
000002f0: 5da1 96be 12f0 2940 b0e8 5540 23d7 b53e
00000300: 43e2 083f 94c4 5b3e b44d 463f 3f44 9e3f
00000310: 9641 8bbc 8cf4 1b40 2228 dc3f d957 243f
00000320: f8f1 aebf 5b9b 1e3f 1635 bb3f fc31 653f
00000330: d0a7 6b40 1174 623f 10e7 833f 633e 5b3f
00000340: 546d 483f 4c16 f83f e80e 993f bd93 ac3e
00000350: 66c5 e43f fbc7 c9bf b344 febd f284 393f
00000360: d12e 21be 9c58 e73f 845f 5d3f c6a5 be3e
00000370: ecde a13f 1634 893f 3d45 fc3f 5490 4a40
00000380: 8af0 343f 5657 183f 7667 ed3f ae97 a03d
00000390: 85df 0540 6df1 19bf ea6b 89be 9555 bf3e
000003a0: 85dc 0a3d 938f b63f c404 c23f 58f5 fbbc
000003b0: 2248 5c3f 6cc2 533f f6bb 043f 94a8 823f
000003c0: 1168 b33f 31d4 11bf 4150 a43f 9be9 e23f
000003d0: 2182 9b3e 1c71 873f 50c6 9b3f c1f8 ed3d
000003e0: 474b a33f eb2b 4040 edc6 d23f a563 ba3f
000003f0: 7ff0 c93d b22e e13d cae1 c53f 6fce 3d40
0.6678645 0.09368554 0.11793675 2.1122131 2.8470287 1.5715575 0.2777278 0.6962454
0.71066844 0.30717832 0.54604566 0.5117526 1.4862229 0.7973368 2.2636974 0.8367257
0.0625863 1.937353 1.3902245 1.4949625 1.870071 2.56257 3.6225414 1.0932788
0.30250007 0.28186187 0.72335374 -0.30625048 -0.042615175 0.3032518 0.7452407 3.7579792
1.0602332 1.0531662 1.5375873 1.5157716 2.1382842 0.574431 4.266662 0.7220402
2.7460206 1.6593437 0.06372204 0.51122135 1.3642344 0.84164673 1.3350335 0.2608309
0.603351 0.7277171 0.766015 1.4926287 1.2009419 0.19976822 0.4056638 0.54264027
0.268116 0.5396654 1.4073443 0.47648543 2.3733914 1.2911576 1.2978371 2.6821892
3.2356653 -0.28441915 1.9975189 0.9301566 0.96126485 2.0951097 0.58527464 0.37549713
-0.033797294 3.4212947 0.94784 1.7834951 1.4674822 1.4069194 2.6116555 0.8896303
1.3709449 -0.6479327 0.56263584 1.9344095 1.2763584 -0.11594056 -3.1435432 2.596884
0.09332904 0.41012332 1.243482 3.7352302 0.1915416 2.0012703 0.35087147 0.12597078
3.760848 3.6721864 2.5432243 -0.22452672 1.4201565 0.8538376 0.7897302 1.617578
1.0940701 3.2094383 1.5253639 3.254169 -0.5732131 2.1535614 0.85869086 3.7633767
0.8169241 1.3137115 2.037507 0.8641751 0.87676877 0.5784318 0.7598411 -0.58932793
-0.07252789 0.6866073 0.48024744 2.1522524 3.8079214 0.9251201 0.7570037 1.0394313
2.5568314 -1.1914321 2.9364448 0.66792333 2.3946097 -0.41786048 0.52891064 0.09333417
0.84618473 0.8806171 1.1088552 1.6920966 2.1987576 0.25375587 0.03324808 0.35293373
1.0089027 1.861422 0.44077092 1.2275815 1.2934998 2.5079243 0.70287895 0.5476708
1.225598 3.1022933 0.12736534 2.5915015 2.19044 1.1280825 0.782761 1.3001314
1.5932174 3.176046 0.84850156 0.65055174 0.85640204 -1.3925724 0.1438748 0.23702563
0.2537073 1.7434961 0.7314382 1.2434758 0.65505964 0.91083395 2.0734777 1.6127434
-0.7717465 -0.20544425 1.2674998 -0.6085555 0.22519957 1.5046039 4.4859595 -0.7965988
-1.0878202 1.7223547 2.4848087 0.4354239 -0.29419985 2.6552777 3.342327 0.355157
0.5347025 0.21461707 0.77462316 1.2364577 -0.016999047 2.436801 1.7199748 0.64196545
-1.3667593 0.61955804 1.4625576 0.89529395 3.6821175 0.88458353 1.030489 0.8564207
0.7829182 1.9381804 1.1957674 0.33706465 1.7872741 -1.5764154 -0.12415447 0.72468483
-0.15740515 1.8073916 0.8647387 0.3723585 1.2646155 1.071902 1.970863 3.165059
0.70679533 0.59508264 1.8547199 0.078414306 2.0917675 -0.6013401 -0.26840144 0.3736998
0.03390171 1.4262565 1.5157704 -0.030756637 0.86047566 0.8271854 0.51849306 1.0207696
1.4016134 -0.56964403 1.2836992 1.7727541 0.30372718 1.0581393 1.2169895 0.11619712
1.2757348 3.0026805 1.6466957 1.4561659 0.09860324 0.109952345 1.545953 2.9657247

l1.bias f4 [8]
00000000: e32c 743f 6b11 c93f 06f4 e33e 8c4c 45be
00000010: 4121 9f3f 7380 c53f 2b32 663f c49e 783f
0.9538099 1.570844 0.44522113 -0.19267482 1.2432023 1.5429825 0.899203 0.9711726

l2.weight f4 [8, 8]
00000000: ba4d b93f 9480 f63f 6c17 7dbe 66ad 943e
00000010: 64e7 e2be f5f4 9840 5d5f d2bf a1d2 883f
00000020: 4511 fdbf 4474 13bd 1aa0 643f 0280 ac3f
00000030: 9d41 d13f e331 8840 ece8 00bc fad8 833f
00000040: dc07 c83f 895b c8bf 8fb1 fabf 42a9 473f
00000050: ee07 b63e fd0b ab3f 8a1c e23f b003 1f40
00000060: 759a 153f 353b 1140 b5d4 c13e 119e 41bf
00000070: 99f5 0040 b1a4 1abe 945b d6bf 93df 423f
00000080: cdda 373f 76bb 473f a88b b83f 9efa fb3f
00000090: 8ab0 f43f d846 c03f 56ad 9abf 4a4b 0cc0
000000a0: 9e91 2b40 4043 1040 4b0e 2bc0 1cad 96bf
000000b0: ae37 8240 131b d13f d4e2 b93f a299 ccbf
000000c0: 8a49 e3bf 189f 9b40 ccb1 3fbf a64a 0ec0
000000d0: c0bc 3740 612f fb3f da0c 0d40 b175 193f
000000e0: 9fd1 003e 2018 4440 b4ab e53f 0358 a23f
000000f0: 3e02 cebf 9b78 55bf de9f a63f f529 45bf
1.4476845 1.9257989 -0.24715966 0.29038543 -0.44317162 4.779902 -1.6435353 1.0689279
-1.9770895 -0.03599955 0.89306796 1.3476565 1.6348149 4.2560897 -0.007868033 1.0300591
1.5627398 -1.5652934 -1.9585437 0.7799264 0.35552925 1.3363034 1.766496 2.4846
0.5843881 2.2692387 0.37857595 -0.75631815 2.01499 -0.15101887 -1.6746697 0.761224
0.7181824 0.7802042 1.441762 1.9685857 1.9116375 1.502162 -1.2084148 -2.1920953
2.6807628 2.2541046 -2.6727474 -1.1771579 4.069297 1.6336387 1.4522347 -1.5984385
-1.7756817 4.8631706 -0.7488067 -2.2233062 2.8708954 1.9623834 2.2039094 0.5994521
0.12579964 3.0639725 1.7943025 1.2683109 -1.6094434 -0.83387154 1.3017538 -0.77017146

l2.bias f4 [8]
00000000: 9eda 5bbe 7574 773d 300a 2f3f cb3d 27bf
00000010: f65f 72bf 87f3 c93e 4162 823f e2d5 a23e
-0.21470115 0.060413796 0.6837492 -0.65328664 -0.94677675 0.3944361 1.0186235 0.31803805

l3.weight f4 [38, 8]
00000000: 6a1c 4abf 2378 3e3e f67c 23c0 7ffe 8f3e
00000010: 1ba1 4abf 8d80 3dc0 9c3f 8abf e431 99bf
00000020: f397 633e 74c6 1dbf db19 8ebf 4b30 7bc0
00000030: b181 94c0 e45e c9bf c0cd 69be 4a1d 6dbf
00000040: d8aa a7bc cc84 35c0 8809 76bf 8b34 cf3e
00000050: 1dc9 1bbf e4d0 5bbf f4df 0fc0 c4ff 4dbf
00000060: 0e66 52bf 3ece 6abe 418c 8cc0 7201 cabf
00000070: 243a 21bb 8ecd c1bf a6de a3bf c632 ae3e
00000080: fb65 4bc0 e7c4 61bf b81c 0ac0 6ddf 3fc0
00000090: 1d76 773f 9a44 963e 9939 5abf 48e5 6abf
000000a0: 24d8 093e 607e f3bf f88a 91c0 6853 3ebf
000000b0: 3fb7 3f3e 57c4 d6be 3525 c2bf f220 e7bf
000000c0: e4c7 7bbf df5b 1cc0 ecc6 623f da76 89bf
000000d0: 693d 283e 3174 053f e6f4 70c0 f2d6 31c0
000000e0: 57cf 203f 1f54 25c0 906a 083f 6f82 443f
000000f0: 1417 21c0 1344 5fbf 2d8a 42c0 b689 a5c0
00000100: ae82 eebe 53ed 7ebf 59b6 52c0 48df 423f
00000110: 37dc 373f 114f b6bf 8150 43c0 9a24 0c3f
00000120: 9b20 a0c0 4547 823f 0a58 2fbf 5934 ffbf
00000130: d44f 0d3e b194 f3bf 8d18 9e3e 7c11 04c0
00000140: eac8 babe 4d61 b2bf 9ec6 c23b 8a69 56c0
00000150: 811c c6bf 38dc 1cbf 6781 e4bf 951c 45bf
00000160: 909a 803e 00e0 9c3e 095b 213c f662 243e
00000170: 1439 363d 6677 2fc0 7d0f 92c0 c7f0 e5be
00000180: 3c07 513f 5deb 9dbf 152d 6ebf 72b2 02c0
00000190: 675d adbf c2b6 cabf 06e8 0cc0 c4c4 ecbf
000001a0: 2fba bcbf f241 7fc0 4604 853f 675c e33d
000001b0: ad58 40c0 5d25 b73e 7ed7 68bf e306 68c0
000001c0: b29f 5bbf 502f 04c0 26ee 0cc0 215a 05be
000001d0: 0961 6ec0 6b1f 92bf 816a e53e 79e9 76bf
000001e0: 3d34 bec0 2919 10bf 3275 cc3e 6ece 58bf
000001f0: d4a6 75bf b18d 2e3f 4cb6 dfbe c394 1cc0
00000200: 0987 a2bf 86d0 83bd 0161 623e 2afa 473e
00000210: 0ed8 a2be 75ca 8ac0 c592 8ebf a2e3 d23e
00000220: 9502 943c 4fc6 3fbf 80d7 72bf ac91 b5c0
00000230: c35d 08c0 cdad e0be 81d9 16bf 1a60 a3c0
00000240: e7ae 0dc0 9971 e93e 6320 dcbf a2a7 5bbf
00000250: b8e6 e2c0 6f46 09c0 7156 873f 69e5 eabf
00000260: 28ea 1ec0 53a0 bfbe f7f7 02bf 4302 85bf
00000270: 84ba a5bd 195b 5cbf 97f6 c6bf a983 7cbf
00000280: a0b3 67bf fb76 03bf e206 603f 8f44 abbe
00000290: 5329 6fc0 9bb1 d6bf 4f41 c2bf c074 41c0
000002a0: 0bdf 58bf 7e72 ea3e 9633 04bf be9c 0ac0
000002b0: c645 bbbf 7e0a 4fc0 6777 02bf 412b ebbf
000002c0: e434 2fbb 4015 f4be aeda 40c0 3f42 4ec0
000002d0: 0266 a5bf 559f f9bf 8929 e3be 89b2 8cbe
000002e0: 08a2 26bf 765d 8ac0 feae 02bf e100 21c0
000002f0: 1295 0d3e f736 623f 2549 b8bf 5bf5 90bf
00000300: 1c76 4e3f 1029 3bc0 f1fc b0bf e84b 87bf
00000310: f80b 5cc0 a4ba 12bf 89dd 1abf f395 a5c0
00000320: e129 23c0 d3eb fa3e b055 a7bf b114 c8c0
00000330: c2c9 0abf 45a6 44bf 7ea9 00be 66b2 90bf
00000340: 1fc6 a3be 1320 23bf 0f1b 4dc0 1b3b acc0
00000350: e9b7 773e 8a41 efbe b1aa 79bf 9165 01c0
00000360: 7437 92bf 0c13 31c0 9258 f6bf 1f61 b4bf
00000370: 6be3 ce3e f7df ae3e 4dbb 0cc0 a9e3 493f
00000380: 8274 63c0 dc0e a9c0 b918 85bf 4d66 57bf
00000390: 9218 b2bf 0e62 843f 5c9d 533f 096a 66bf
000003a0: 588c 97bf dd07 09bf f52f 81c0 405c 0cc0
000003b0: 8514 18c0 bbe0 e8be f206 673e 4ae4 93c0
000003c0: d02a 873e 5c7e 8bc0 b4ea 3bc0 fb63 2dc0
000003d0: 2c26 23bf 7ce1 483f 93ab 4bbe ccf4 8ac0
000003e0: 9b11 a4c0 d5e0 34bf 7d21 4ac0 71e1 f8bf
000003f0: aa6e e6bf 0229 693f 3c78 7e3f ded8 09c0
-0.78949606 0.18600516 -2.554502 0.28123853 -0.7915208 -2.960971 -1.0800662 -1.196835
0.22225933 -0.6163094 -1.110164 -3.9248226 -4.6408315 -1.5732083 -0.22832394 -0.92622817
-0.020467207 -2.8362303 -0.96108294 0.40469775 -0.6085375 -0.85865617 -2.248044 -0.8046839
-0.82186973 -0.22930238 -4.392121 -1.5781691 -0.0024601305 -1.5140855 -1.2802322 0.34023112
-3.1780994 -0.88191074 -2.1580029 -2.9980118 0.966646 0.29349214 -0.8524414 -0.91756105
0.13461357 -1.9022942 -4.548214 -0.7434602 0.18722247 -0.4194667 -1.5167605 -1.8056929
-0.98351884 -2.4431074 0.8858478 -1.0739396 0.16429676 0.5213042 -3.7649474 -2.7787442
0.62816375 -2.5832593 0.532876 0.76761526 -2.5170336 -0.8721325 -3.0396836 -5.1730604
-0.46584076 -0.9958088 -3.2923796 0.7612195 0.71820396 -1.4242879 -3.0517886 0.5474335
-5.00398 1.0178 -0.6849371 -1.993785 0.13799983 -1.9029752 0.30878106 -2.0635672
-0.3648141 -1.3935944 0.005944087 -3.3501916 -1.5477449 -0.6127353 -1.785199 -0.7699674
0.25117922 0.30639648 0.009848365 0.16053376 0.044488028 -2.7416625 -4.5643907 -0.4491026
0.81651664 -1.2337452 -0.9303754 -2.0421414 -1.3544129 -1.5837023 -2.2016616 -1.8497548
-1.4744319 -3.9884 1.0391929 0.11101609 -3.0054123 0.35770693 -0.90953815 -3.6254203
-0.8579055 -2.0653877 -2.2020354 -0.13022663 -3.7246726 -1.1415838 0.4480782 -0.9645
-5.9438767 -0.5628839 0.39933163 -0.84689987 -0.95957685 0.68184954 -0.4369377 -2.4465797
-1.269746 -0.06436257 0.22107317 0.19529024 -0.31805462 -4.337214 -1.113854 0.41189295
0.018067637 -0.7491197 -0.94860077 -5.674032 -2.1307228 -0.438826 -0.58925635 -5.105481
-2.2138002 0.4559448 -1.7197384 -0.8580266 -7.090664 -2.144924 1.0573255 -1.835126
-2.4830418 -0.37427005 -0.51159614 -1.0391315 -0.08092216 -0.86076504 -1.5544003 -0.986384
-0.9050846 -0.51353425 0.875105 -0.33450744 -3.7368972 -1.6772951 -1.5176181 -3.0227509
-0.84715337 0.45790476 -0.51641214 -2.1658168 -1.4630668 -3.2350154 -0.50963444 -1.8372575
-0.0026734406 -0.47672462 -3.0133471 -3.2227933 -1.2921755 -1.9501749 -0.44367626 -0.27479962
-0.6509099 -4.323909 -0.51048267 -2.5156786 0.13826397 0.8836512 -1.4397322 -1.1324877
0.8064897 -2.9243813 -1.3827192 -1.057004 -3.4382305 -0.5731604 -0.60494286 -5.1745543
-2.549431 0.49008045 -1.3073025 -6.252526 -0.5421411 -0.7681621 -0.12564656 -1.1304443
-0.31987092 -0.63720816 -3.2047765 -5.382215 0.2419125 -0.4672969 -0.9752608 -2.0218241
-1.1423173 -2.7667875 -1.924578 -1.4092139 0.4040788 0.34155247 -2.198932 0.78863007
-3.553986 -5.283064 -1.039817 -0.84140474 -1.3913748 1.0342424 0.82661986 -0.90005547
-1.1839705 -0.53527623 -4.037104 -2.1931305 -2.3762524 -0.45483956 0.22561243 -4.6216173
0.2639985 -4.3591747 -2.9362001 -2.7092273 -0.6373012 0.7846906 -0.19889669 -4.3423824
-5.127149 -0.70655566 -3.158294 -1.9443799 -1.8002522 0.910782 0.99402213 -2.1538615

l3.bias f4 [38]
00000000: 241d 66bf 09d9 37c0 087f 9dbf 7bbf 8abf
00000010: 68d5 d3bf 868d 20be 04cb 4cbf 1781 73bf
00000020: 6117 bd3e 07bf b0bf 4660 e2bf 155d 3b3e
00000030: 8750 aebf 72d6 5bbf 3eb2 3040 5525 1cbf
00000040: be65 e33e b2c5 b9bf 346b 55c0 d2ab 88bf
00000050: dd08 51c0 08ff 8ebf abc6 93bf 4173 c6bf
00000060: 535f d1bf 1b9f 49bf c0d6 f8be 1326 87bf
00000070: 20ba 1ec0 52ec 92bf be9d 21bf 0ae1 3fbf
00000080: b216 20bf 6999 663e 607d 4dbf 7491 3cc0
00000090: fd5d 36c0 5862 16bf
-0.89888215 -2.8726218 -1.2304392 -1.0839685 -1.6549501 -0.15678987 -0.7999728 -0.9511885
0.369319 -1.3808297 -1.768563 0.18297227 -1.3618325 -0.8587409 2.760879 -0.60994464
0.4441356 -1.4513457 -3.3346682 -1.0677435 -3.266166 -1.1171579 -1.1545004 -1.5503923
-1.6357216 -0.787584 -0.4860134 -1.0558494 -2.4801102 -1.1478369 -0.6313132 -0.7495276
-0.6253463 0.22519459 -0.8026943 -2.9463778 -2.8494866 -0.5874381
